iris_model.pt (torch_old, 1628 bytes, 6 tensors)

fc1.weight f4 [8, 4]
000000 0d d9 f7 3d 3b a5 e0 be 11 99 ec be 26 bb 33 bd
       0.12101946 -0.4387606 -0.4621053 -0.04387965
000010 08 29 c6 be f0 7d a2 3d 60 a1 17 3e da 44 f4 be
       -0.3870318 0.07934177 0.14807653 -0.4770878
000020 a1 7a b4 3e c2 b9 0f bd 9c a4 2e 3f 6b 15 03 3e
       0.35249808 -0.03508926 0.68219924 0.12801139
000030 46 89 06 3f e0 7d a7 3d 6a 3c 16 bf 3b 20 a2 bf
       0.5255321 0.081783056 -0.58685935 -1.2666086
000040 d3 15 09 3f da d2 d2 be 92 2b 6e 3f 8d 17 78 3f
       0.53548926 -0.41176492 0.93035233 0.96910936
000050 ce 7a c9 3e 6c ce 3b 3f 7c 22 57 bf eb d1 88 bf
       0.39351505 0.7336185 -0.84036994 -1.0689062
000060 a8 98 28 3e 70 0d e4 bd ec ba d7 be 58 f0 b5 be
       0.16464484 -0.111353755 -0.42134798 -0.3553493
000070 9c 64 a3 be 90 69 13 3e 38 ff b2 be e4 82 69 3e
       -0.31912696 0.14395738 -0.3496034 0.22803837

fc1.bias f4 [8]
000000 59 35 3e 3e 1c bc 4f be d1 d1 a6 3f cb bc 22 40
       0.18575038 -0.20286602 1.3032781 2.542773
000010 df 2e a5 bf bb cd 10 40 ea dc 9f be f0 90 c1 3e
       -1.2904929 2.2625568 -0.31223232 0.3780589

fc2.weight f4 [9, 8]
000000 3a a1 5e be 20 2c a8 3d 65 38 d4 3d b5 ed b4 be
       -0.2174119 0.08211541 0.10362319 -0.35337606
000010 34 45 d6 be 5a c7 cc 3d 8a e5 b2 be 11 1c 87 be
       -0.41849673 0.09998961 -0.3494075 -0.263886
000020 3f 10 31 3e c4 bf f2 bd 78 d3 88 3f bc 40 81 be
       0.17291354 -0.11852983 1.0689535 -0.252447
000030 c5 21 41 3f 9f ab 82 bf 40 2e 8f 3d 70 31 a7 be
       0.75442153 -1.0208625 0.06991243 -0.32654905
000040 38 88 b5 be 8d 12 8b be c5 9d 9e 3b 82 c8 5d bf
       -0.3545549 -0.2716259 0.004840585 -0.86634076
000050 b5 3f 53 3f 6f 3e 83 bf 27 0a 9c 3e 89 2c 57 be
       0.82519084 -1.0253428 0.30476496 -0.21013083
000060 33 ee 96 bd b8 92 78 bd 94 56 35 3e 02 1e 2b bd
       -0.07369652 -0.060686797 0.17708808 -0.041776665
000070 85 9e 07 be 5c 8f f2 bd 99 b0 99 be f4 f0 e6 bd
       -0.13244064 -0.1184375 -0.30017546 -0.11276427
000080 24 b0 01 3e a5 c6 43 be ad 2a 7a bd 7b c8 6c bf
       0.12664849 -0.19118746 -0.061075855 -0.9249341
000090 4e cf 63 3f c3 e4 e8 be e8 49 50 be 00 9f 3a 3c
       0.88988197 -0.4548703 -0.20340693 0.011390448
0000a0 a0 47 a1 bc 50 61 80 3d 76 46 6b be 4c de 61 be
       -0.019687474 0.06268561 -0.22976097 -0.22057456
0000b0 28 b5 54 bd be 2b 8b be 40 47 21 3d 07 17 39 be
       -0.051930577 -0.2718181 0.03937459 -0.1807519
0000c0 54 b1 83 be 50 ea 8e bc 7a 39 df 3e 04 ee 2b 3c
       -0.25721228 -0.017445713 0.4359854 0.010493759
0000d0 4f f3 6e 3f 57 ef 2c bf 02 42 e2 bd 38 b8 7f bd
       0.9334001 -0.67552704 -0.11047746 -0.062431544
0000e0 02 d4 04 be 7c 94 af be 8d d6 61 3f 59 9c 30 3f
       -0.129715 -0.34292972 0.88218004 0.6898857
0000f0 f0 04 c0 be 51 a5 8c 3f 20 66 b4 be 81 fa 9f 3e
       -0.37503767 1.098795 -0.35234165 0.31245807
000100 17 d3 ac be 37 2c 55 be 20 e8 fa 3d e0 57 24 be
       -0.337548 -0.20817648 0.122513056 -0.16049147
000110 23 6c 35 be 8d 7d 9d be 6c 30 dd 3d 49 ee 91 3e
       -0.17717032 -0.3075985 0.10800251 0.2850211

fc2.bias f4 [9]
000000 c3 88 92 3c 56 16 40 3f 46 9c d8 bf 86 0e e3 be
       0.017887479 0.7503408 -1.6922691 -0.44347018
000010 cf c0 91 bf 08 de 12 bd fc ad a6 bd 22 eb 4c 3f
       -1.1386966 -0.035856277 -0.08138654 0.80046284
000020 84 a1 ec bc
       -0.02888561

out.weight f4 [3, 9]
000000 3b a8 0e be 89 c9 35 bf d8 99 24 be f4 38 19 bd
       -0.13931362 -0.71010643 -0.16074312 -0.03740783
000010 c7 a1 3e bf 42 1a 68 3e ad 76 38 bf 49 dc 6d 3f
       -0.744656 0.22666267 -0.72056085 0.92914253
000020 e9 cd 98 3e ed a1 cc 3d c1 00 4c 3f fb 77 b2 bf
       0.29844597 0.099918224 0.7968865 -1.3942865
000030 79 cd 09 be 84 7c 77 bf b1 2f 8b 3e b0 b8 05 3f
       -0.13457288 -0.9667437 0.27184823 0.52234936
000040 a0 75 14 3d eb f9 52 3e c6 95 44 be d1 74 62 3e
       0.03624499 0.20603149 -0.19197759 0.22114874
000050 2d 7f 86 3f 42 aa 18 bd 88 2d 70 3f e6 d2 a4 be
       1.0507561 -0.037271746 0.93819475 -0.32192153
000060 1a 96 52 3f 8c 50 9e bf 06 0c b5 bd
       0.82260287 -1.2368331 -0.08840184

out.bias f4 [3]
000000 bb 55 15 3f 90 c4 ac bd 4f 8b 36 bf
       0.5833394 -0.08435929 -0.7130632
